app/src/main/assets/model.tflite (tflite, 345808 bytes, 7 tensors)

dense_193/bias f4 [128]
0	0x3d1ca217	0.03824052
1	0x3d081c34	0.03323002
2	0xbcb44899	-0.022007274
3	0x3cf921a7	0.030411555
4	0xbb98106f	-0.004640631
5	0xbc1b7274	-0.009487737
6	0xbd361324	-0.044451848
7	0x3ce02261	0.027360143
8	0x3da2ded4	0.07952657
9	0x3d4e5d77	0.050382104
10	0xbc9cd8c7	-0.019146336
11	0x3d691ad1	0.05691034
12	0xbcde02f9	-0.027101027
13	0x3bf1a6f9	0.007374641
14	0xbd6ab864	-0.057304755
15	0x3d4cea5f	0.0500282
16	0xbb62880f	-0.003456596
17	0xbcc44b74	-0.02396176
18	0xbc922289	-0.017838733
19	0x3ccf117d	0.025276894
20	0x3d0d5fbe	0.034515135
21	0x3c8e1f54	0.017348923
22	0x3d9dddfe	0.07708357
23	0xb976a2c6	-0.00023521026
24	0x3d16bb53	0.03679974
25	0x3d5a5bc6	0.05331018
26	0x3cb96794	0.022632398
27	0xbc576104	-0.013145689
28	0x3c9a2347	0.01881565
29	0x3d3197ba	0.04335759
30	0x3c81ebbf	0.015859483
31	0x3ddf2012	0.10894789
32	0x3d55c172	0.052186437
33	0x3d8146bd	0.063123204
34	0x3c3474da	0.011014188
35	0x3d3fc443	0.04681803
36	0x3cae55ae	0.02128109
37	0x3d09c6ab	0.03363673
38	0x3d52b3fe	0.051441185
39	0x3c0ab84e	0.008466793
40	0x3d522914	0.051308706
41	0x3d5ef7c4	0.054435506
42	0x3cd7e788	0.02635552
43	0xbc4d62f6	-0.012535801
44	0x3d25ff29	0.040526543
45	0x3dd85262	0.10562588
46	0xbc742d80	-0.014903426
47	0x3c8987ff	0.01678848
48	0x3d14a2e1	0.036288146
49	0x3ced2310	0.028947383
50	0x3ca4ef6a	0.020133693
51	0x3d6e44ed	0.0581712
52	0x3cc19305	0.023629675
53	0xbc896412	-0.01677135
54	0x3d2470bb	0.04014657
55	0x3cf1fc37	0.02953921
56	0xbd5da59a	-0.054113008
57	0x3d9bc596	0.07606046
58	0x3d8c3fd5	0.068481125
59	0x3d1ad7fc	0.037803635
60	0x3b8780e3	0.0041352375
61	0xbc42bf84	-0.011886481
62	0x3ca2c1a9	0.019867735
63	0x3d3cf276	0.046129666
64	0x3de654e1	0.11246658
65	0x3d0e8262	0.03479231
66	0xbd36e155	-0.044648487
67	0x3b95f614	0.004576454
68	0x3db57744	0.08860639
69	0x3ce4de69	0.027938085
70	0x3d71941e	0.058979146
71	0x3d80f56e	0.06296812
72	0x3d01088b	0.031502288
73	0xbc84e95a	-0.016224552
74	0x3d76c67f	0.060247894
75	0x3d6ba0a3	0.057526242
76	0x3d1a31c8	0.03764513
77	0x3d4876e2	0.0489415
78	0x3cdb59c6	0.026776206
79	0xbae0b0cf	-0.0017142537
80	0xbd232574	-0.03983064
81	0x3c875ac8	0.01652278
82	0x3df6d4b5	0.120522894
83	0x3cc4b159	0.024010347
84	0x3d2d5619	0.042318437
85	0x3c82a0b0	0.015945762
86	0xbc480ed9	-0.012210571
87	0x3ddb7eaf	0.10717522
88	0x3d24f51a	0.04027281
89	0x3d2be083	0.041962158
90	0x3cc5ca63	0.024144357
91	0x3d35dc76	0.0443997
92	0x3c2cdf4a	0.010551283
93	0xbd34a746	-0.044104837
94	0x3d65a5da	0.05606637
95	0x3d777474	0.060413793
96	0xbb1a825e	-0.002357624
97	0x3d4be8cb	0.049782556
98	0xbc9d16a0	-0.019175828
99	0x3d0cf6e2	0.034415133
100	0xbc286f41	-0.010280431
101	0x3d10f08b	0.03538565
102	0x3c8d3569	0.017237382
103	0x3d948bc0	0.07253218
104	0x3ccb52e8	0.024819806
105	0x3d151189	0.036393676
106	0xbcd62b4f	-0.026143698
107	0x3d0632e0	0.032763362
108	0x3d4e4496	0.050358377
109	0x3db35470	0.087563396
110	0x3d0e3b28	0.034724385
111	0x3b93ceac	0.004510721
112	0x3ce06f11	0.02739671
113	0x3c5d3c28	0.013503112
114	0x3db34476	0.08753292
115	0x3db1c306	0.08679776
116	0x3d311246	0.043230318
117	0xbd3e64d5	-0.04648288
118	0x3d0373ea	0.032092966
119	0xbd1caed1	-0.038252655
120	0x3deaa447	0.11457115
121	0x3d453d47	0.04815414
122	0x3c6eeec3	0.014583292
123	0x3c4d11e1	0.01251647
124	0xbd4e4b25	-0.050364632
125	0x3d734478	0.05939147
126	0x3d263618	0.04057893
127	0x3dae4bc3	0.08510544

dense_192/bias f4 [128]
0	0x3d1a931d	0.037737954
1	0xbd2b62de	-0.041842334
2	0xbd02e0c0	-0.03195262
3	0x3b9f62ea	0.0048640864
4	0x3ce89eff	0.028396128
5	0xbc79ed82	-0.01525438
6	0x3d3d1ac5	0.046168108
7	0xbc908ddc	-0.017645769
8	0xbcbff710	-0.023433238
9	0x3ccc893b	0.02496778
10	0x3be74798	0.007058095
11	0xbd0c294a	-0.034219064
12	0xbd861464	-0.06546858
13	0x3d2c9ff6	0.04214474
14	0xbcf59f7b	-0.029983273
15	0xbaca7f95	-0.0015449399
16	0x3c7077d4	0.014677007
17	0x3b72d62e	0.003705393
18	0x3dbe63c7	0.09296375
19	0xbbf06f68	-0.0073374994
20	0x3db2c92c	0.08729777
21	0x3d195e53	0.03744347
22	0xbc879a0e	-0.016552951
23	0x3d0b6f85	0.0340419
24	0xbcd9a770	-0.026569098
25	0x3ce1812a	0.02752741
26	0xbc42a305	-0.011879687
27	0xbc83de55	-0.016097227
28	0xbd0a6032	-0.033783145
29	0xbd1e703e	-0.03868126
30	0xbcd9363b	-0.026515117
31	0xbbb4fa2c	-0.005522987
32	0xbbc49aef	-0.005999915
33	0xbd46b6b6	-0.04851409
34	0x3bca1180	0.006166637
35	0xbd1b0e27	-0.037855294
36	0xbc42d8cd	-0.01189251
37	0xbc353c68	-0.011061765
38	0xba922e8e	-0.001115279
39	0x3c7fd80e	0.015615476
40	0xbceb2fc4	-0.0287093
41	0xbb6998fb	-0.0035644162
42	0x3d49f1b6	0.04930278
43	0xbc33bf2d	-0.010970873
44	0xbc87dac0	-0.0165838
45	0xbc4f945a	-0.012669647
46	0x3c5ae8c4	0.01336116
47	0xbbc4b5e2	-0.0060031274
48	0xbc95e742	-0.018298749
49	0xbc07e027	-0.008293188
50	0x3dbe8a6f	0.09303748
51	0x3c888519	0.016665028
52	0xbc595e5b	-0.013267125
53	0x3c3b49ef	0.011431201
54	0xbb17a040	-0.0023136288
55	0xbce713be	-0.028207656
56	0x3cd39a34	0.025830366
57	0xbc6fa408	-0.01462651
58	0xbc353ed3	-0.011062342
59	0xbc2cbe00	-0.010543346
60	0xbcccdb8f	-0.025007037
61	0xbc66b586	-0.0140813645
62	0x3db0db15	0.086355366
63	0xbc5960c1	-0.013267697
64	0x3d29321f	0.041307565
65	0xbc1299ec	-0.008947831
66	0x3c21ecb1	0.009883092
67	0x3c22911b	0.009922291
68	0xbc5e75bf	-0.013577878
69	0x3e1d70fa	0.15375128
70	0x3cb8b170	0.022545546
71	0x3cf2c254	0.029633678
72	0xbce19b7a	-0.027539957
73	0xbd1be6e2	-0.038061984
74	0xbc9807fa	-0.018558491
75	0xbd902cbd	-0.07039783
76	0xbc4459f4	-0.011984337
77	0xbd124abb	-0.0357158
78	0x3db1e00e	0.08685313
79	0xbc3c9332	-0.0115097035
80	0xbc2d28c4	-0.010568801
81	0x3e1de837	0.15420614
82	0xbc153675	-0.009107222
83	0xbdbb5173	-0.091463946
84	0xbda8e28d	-0.08246336
85	0xbc3f3696	-0.011670729
86	0x3c11acbd	0.008891282
87	0xbc927ffa	-0.01788329
88	0x3d280839	0.041023467
89	0x3d2a2e4f	0.04154807
90	0xbb892770	-0.0041856095
91	0xbc9378ed	-0.018001998
92	0xbd1bb12a	-0.038010754
93	0x3ca8a1ba	0.02058493
94	0x392d8f2d	0.00016551903
95	0xbc9ffc1e	-0.019529399
96	0xbcf05a45	-0.029339919
97	0x3cdeb42f	0.027185528
98	0x3cda814c	0.026672982
99	0x3d03e2b6	0.03219863
100	0x3bd14b20	0.0063871294
101	0xbd243450	-0.04008895
102	0xbcae45ac	-0.021273457
103	0x3c1b1a39	0.009466701
104	0x3d53ab09	0.051676784
105	0xbc781a09	-0.015142926
106	0xbda3a10d	-0.079897024
107	0xbce040c8	-0.02737464
108	0xbcde7e5b	-0.02715986
109	0x3da95ec7	0.082700305
110	0xbc5667b0	-0.013086244
111	0x3cd27be9	0.02569385
112	0x3ce672d5	0.028130928
113	0x3c30f2ec	0.010800105
114	0xbcc1dbd4	-0.023664393
115	0xbcc01309	-0.023446577
116	0x3bb1f88e	0.0054312414
117	0xbcfca675	-0.030841092
118	0xbce0b3f4	-0.027429558
119	0x3d605afd	0.054774273
120	0x3d1a8f72	0.037734456
121	0x3d390bcd	0.04517727
122	0x3c9c8ea9	0.019110994
123	0x3cc66205	0.024216661
124	0x3ce29d2c	0.027662836
125	0xbbc4231b	-0.00598563
126	0x3bc316b4	0.005953634
127	0x3c01cc0b	0.007922183

dense_191/bias f4 [512]
0	0xbd8b35ee	-0.06797396
1	0x3d69b4a3	0.057057034
2	0x3ca69c07	0.020338072
3	0xbd637525	-0.05553164
4	0xbc9695b0	-0.018381923
5	0xbc60a586	-0.013711339
6	0xbce47531	-0.027887912
7	0xbaf254c7	-0.00184884
8	0xbc010fc5	-0.007877295
9	0xbae3ad94	-0.0017370456
10	0xbba884f7	-0.005142804
11	0xbce2d050	-0.027687222
12	0xbd45dd87	-0.048306968
13	0x00000000	0.0
14	0x3c3d7bf7	0.0115652
15	0x3ce94e3e	0.028479692
16	0xbcc19f17	-0.02363543
17	0xbcf96602	-0.030444149
18	0x00000000	0.0
19	0xbc8c5a49	-0.017132895
20	0xbcff21df	-0.03114408
21	0x00000000	0.0
22	0x3cb7cc48	0.022436276
23	0x00000000	0.0
24	0xbc368d57	-0.0111420965
25	0x00000000	0.0
26	0xbc428052	-0.011871414
27	0xba2d3f23	-0.00066088344
28	0x3d2d6517	0.042332735
29	0xbcd46fd9	-0.02593224
30	0xbd92487f	-0.07142734
31	0xbdc96320	-0.0983336
32	0x3de1f5c4	0.11033204
33	0x00000000	0.0
34	0xbd36d8e3	-0.044640433
35	0xbc8516b4	-0.016246177
36	0xbda332e5	-0.07968692
37	0x00000000	0.0
38	0x3d481311	0.04884631
39	0xbd881f94	-0.06646648
40	0x00000000	0.0
41	0x3bd02e41	0.00635317
42	0x3c99b6bb	0.01876389
43	0xbd2e4d6c	-0.042554304
44	0x00000000	0.0
45	0xbdbc3cac	-0.0919126
46	0xbc82e5fb	-0.015978804
47	0x3d9dc9e7	0.077045254
48	0xbc84dc35	-0.016218284
49	0x3d32c910	0.04364878
50	0xbbea99ac	-0.0071594324
51	0x3cc8a822	0.024494234
52	0xbd5b8219	-0.053590868
53	0x00000000	0.0
54	0xbdaada9a	-0.08342476
55	0xbc902730	-0.017596811
56	0x00000000	0.0
57	0xbde226af	-0.110425346
58	0x3d762f7e	0.060103886
59	0xbd124ed5	-0.03571971
60	0x3c4cb511	0.0124943415
61	0xbe0a9b2d	-0.13535757
62	0xbda95a1e	-0.082691416
63	0xbcdd2551	-0.026995333
64	0xbcfe7b16	-0.031064551
65	0xbdbaa663	-0.09113767
66	0x3d6a95f7	0.057271924
67	0xbdc17e3e	-0.09447907
68	0x3cb5471e	0.022128638
69	0xbc33972d	-0.010961336
70	0x3d2975b9	0.041372035
71	0xbcf158d4	-0.029461302
72	0xbe012efa	-0.12615576
73	0xbd5a8b26	-0.05335536
74	0x00000000	0.0
75	0xbce666c2	-0.02812517
76	0x3c6b07b0	0.014345095
77	0x3dc75a18	0.09733981
78	0xbced89c8	-0.028996363
79	0xbc9d2b4c	-0.019185685
80	0xbd55ecd6	-0.052227817
81	0xbd3387d6	-0.043830715
82	0xbd0435f2	-0.03227801
83	0x3d0927ae	0.033485107
84	0xbb07e2d1	-0.0020734558
85	0xbd5aa9d5	-0.05338462
86	0xbca9b749	-0.02071728
87	0x3e06c3ac	0.1316058
88	0xbc40b010	-0.011760727
89	0x00000000	0.0
90	0x3cff0cfc	0.031134121
91	0xbdf290a2	-0.11843993
92	0xbba7ed8e	-0.0051247543
93	0xbb987778	-0.0046529137
94	0xbdb081d9	-0.086185165
95	0x3cade649	0.021227973
96	0xbe2755be	-0.16341302
97	0x3d4cb587	0.049977805
98	0xbd9ca2fe	-0.07648276
99	0x00000000	0.0
100	0xbd794a13	-0.06086166
101	0xbd16a071	-0.036774103
102	0xbcfb6fb1	-0.030692907
103	0xbd90af09	-0.07064635
104	0x3ca389bc	0.019963138
105	0xbcf83126	-0.030296873
106	0xbd6ad73c	-0.05733417
107	0x3cde2d30	0.027121156
108	0xbd54a9a8	-0.05191961
109	0x3cf09eb8	0.029372558
110	0x3d847a73	0.06468668
111	0xbd0053da	-0.031329967
112	0x00000000	0.0
113	0x00000000	0.0
114	0x3d291f93	0.041289877
115	0x392d2afb	0.00016514577
116	0x3c68493b	0.014177616
117	0x3bc99d26	0.0061527668
118	0x00000000	0.0
119	0xbd4cb0f9	-0.04997346
120	0x00000000	0.0
121	0x3c735254	0.0148511715
122	0xbd8ccd2f	-0.06875073
123	0xbddc38a9	-0.107529946
124	0xbabcf2b7	-0.0014415596
125	0x00000000	0.0
126	0x00000000	0.0
127	0xbd238269	-0.03991929
128	0xbd7f425a	-0.062319137
129	0x00000000	0.0
130	0xbd9aa0c2	-0.07550193
131	0xbb54ab2e	-0.0032450664
132	0x00000000	0.0
133	0xbcf696ca	-0.030101199
134	0x3d4129e2	0.047159083
135	0x3c92c80e	0.01791766
136	0x00000000	0.0
137	0x3d568816	0.052375875
138	0x3d321870	0.043480337
139	0x3d5b2cc2	0.05350948
140	0x00000000	0.0
141	0xbd30cf43	-0.04316641
142	0xbced5bb7	-0.028974397
143	0x3c9c9b04	0.019116886
144	0xbc2ca822	-0.010538133
145	0xbc90bbba	-0.01766764
146	0x3ba98c74	0.005174214
147	0x3b69577a	0.0035605119
148	0xbd3b5131	-0.045731727
149	0x3c09f80a	0.0084209535
150	0x00000000	0.0
151	0x3d56ccb8	0.05244133
152	0x00000000	0.0
153	0x3b9c984a	0.0047788965
154	0xbd530626	-0.051519535
155	0x00000000	0.0
156	0x3b4e66f9	0.0031494482
157	0xbbc3ff13	-0.005981335
158	0xbd852875	-0.06501857
159	0xbcb3230b	-0.021867296
160	0xbd60ba0d	-0.05486493
161	0x00000000	0.0
162	0x3c2fb578	0.010724418
163	0x3dc206ae	0.0947393
164	0x3b04d102	0.002026618
165	0x00000000	0.0
166	0x3d277c57	0.040890064
167	0x00000000	0.0
168	0xbb580daf	-0.003296714
169	0x00000000	0.0
170	0x3c50411e	0.012710838
171	0xbaaf45bd	-0.0013372224
172	0x00000000	0.0
173	0xbbff71f3	-0.007795566
174	0x00000000	0.0
175	0x3d30b245	0.04313876
176	0xbdc2a889	-0.09504802
177	0x3c27a206	0.0102315005
178	0xbba952a1	-0.005167321
179	0xbda88c06	-0.08229832
180	0xbd4ed6ad	-0.0504977
181	0xbd9a885f	-0.07545542
182	0x3ca6d9a7	0.020367457
183	0xbdd0c274	-0.10193339
184	0xbd89ae13	-0.06722655
185	0xbd94cefb	-0.07266041
186	0xbd8325b1	-0.064036734
187	0xbc7df6a4	-0.015500698
188	0xbd0b1699	-0.033957098
189	0xbdc46a7a	-0.09590621
190	0xbdb8d0c8	-0.09024197
191	0x00000000	0.0
192	0xbba878a2	-0.0051413337
193	0xbd419444	-0.047260538
194	0x3d7e4cfe	0.062085144
195	0xbac59d6b	-0.0015076821
196	0x3d595824	0.053062573
197	0x3cab19a8	0.020886257
198	0xbbb6db11	-0.005580314
199	0x00000000	0.0
200	0xbc9810ea	-0.018562753
201	0xbd8648f9	-0.06556887
202	0x3d907812	0.070541516
203	0x3d1c2a3a	0.038126208
204	0xbcea400a	-0.02859499
205	0x00000000	0.0
206	0x3d63df76	0.05563303
207	0xbd151753	-0.036399197
208	0xbd340a5e	-0.0439552
209	0xbdb81c40	-0.08989763
210	0xbccdd7bd	-0.025127286
211	0xbd11560a	-0.035482444
212	0xbd096412	-0.0335427
213	0xbdd41d71	-0.10357178
214	0x3d1e3e8d	0.03863387
215	0x00000000	0.0
216	0x00000000	0.0
217	0xbd634c3c	-0.055492625
218	0x00000000	0.0
219	0x3d84a46d	0.06476674
220	0x00000000	0.0
221	0xbd88d898	-0.06681937
222	0xbd320802	-0.043464668
223	0xbc9a1f7d	-0.018813843
224	0xbd792075	-0.06082197
225	0xbd5edb25	-0.05440821
226	0x3dc3f823	0.09568813
227	0x3c87caef	0.016576258
228	0xbdecb3c5	-0.11557726
229	0xbd2797bf	-0.0409162
230	0x00000000	0.0
231	0xbc914a1d	-0.017735535
232	0xbc11998d	-0.008886707
233	0xbd291bc7	-0.041286256
234	0xbc8d99e1	-0.01728529
235	0xbde864ed	-0.11347375
236	0x00000000	0.0
237	0x00000000	0.0
238	0xbba8af78	-0.0051478706
239	0x3db6ccc0	0.08925772
240	0x00000000	0.0
241	0x3d7142c6	0.05890157
242	0x3dd31f68	0.10308725
243	0x3d041487	0.03224614
244	0x3d61a58f	0.05508953
245	0x3c96562d	0.018351639
246	0xbd1d5f8e	-0.038421206
247	0x00000000	0.0
248	0xbd27d70b	-0.040976565
249	0xbda54f8a	-0.080718115
250	0xbd08e56f	-0.03342193
251	0x00000000	0.0
252	0xbd6f0894	-0.05835779
253	0xbd5c6281	-0.05380488
254	0xbd21910d	-0.03944497
255	0xbd721069	-0.05909768

sequential_48/dense_191/MatMul f4 [512, 6]
0	0x3db728dd	0.08943341
1	0x3dcb5831	0.099289306
2	0x3e8219ab	0.25410208
3	0xbd953e7f	-0.07287311
4	0x3bdd400c	0.0067520197
5	0xbdf73de0	-0.120723486
6	0xbe403f1f	-0.18774079
7	0xbdddbf8e	-0.10827552
8	0x3e879e8f	0.26488158
9	0xbe437565	-0.19087751
10	0x3dd1e4af	0.10248696
11	0xbdc3107c	-0.095246285
12	0xbc572bd7	-0.013133011
13	0x3d47c126	0.048768185
14	0x3dc9608b	0.09832867
15	0xbc68c8d6	-0.014208039
16	0x3ddf58d3	0.10905614
17	0xbe2db562	-0.16963723
18	0x3d8f3e9e	0.06994365
19	0x3d213a50	0.03936225
20	0xbdac18ac	-0.08403143
21	0xbcf4ad18	-0.029867694
22	0xbdbf1675	-0.09330455
23	0x3d7366ee	0.059424333
24	0x3e62834c	0.22120398
25	0xbcb44057	-0.022003336
26	0xbd1a35d2	-0.037648983
27	0x3e0355f7	0.12825762
28	0xbe39fb61	-0.181623
29	0xbd6cadda	-0.057782985
30	0x3e30ee21	0.17278339
31	0xbc7b4888	-0.015337117
32	0x3e25ea41	0.16202642
33	0x3cc7a9c6	0.024372946
34	0xbdd3299e	-0.10310672
35	0xbe517c08	-0.2045747
36	0xbda8316f	-0.08212554
37	0x3d9b20bc	0.07574603
38	0xbdb6bd06	-0.08922772
39	0xbe1727b8	-0.14761245
40	0x3e009a66	0.12558898
41	0x3d5630f3	0.052292775
42	0x3e383bc7	0.17991553
43	0x3caee286	0.02134825
44	0x3d37658f	0.04477459
45	0x3d9c5347	0.076330714
46	0xbe2327a2	-0.15933087
47	0xbd7b46a3	-0.06134666
48	0xbd5d048e	-0.05395942
49	0xb8438bc5	-4.6621793e-05
50	0xbda6b619	-0.08140201
51	0x3c13c9ca	0.009020278
52	0xbce41068	-0.027839854
53	0xbd0e28bc	-0.034706816
54	0xbe114070	-0.14184737
55	0x3dd8950a	0.10575302
56	0xbd942b75	-0.07234851
57	0xbc891801	-0.016735079
58	0x3bf91c64	0.0076022614
59	0x3db98a59	0.09059591
60	0xbd456159	-0.04818854
61	0xbd5c9836	-0.053856097
62	0xbd53fe3f	-0.05175614
63	0x3c5c7101	0.013454677
64	0xbc5e6a78	-0.013575189
65	0xbdb85c3f	-0.090019695
66	0xbe33b2bc	-0.1754865
67	0x3daff253	0.085911416
68	0xbdcc8842	-0.099869266
69	0x3de2c659	0.11072988
70	0xbc6c4aed	-0.014422161
71	0xbd8cce8e	-0.06875335
72	0x3bc89a86	0.0061219363
73	0xbd43be84	-0.04778911
74	0x3c8027ff	0.015644072
75	0x3e076dd6	0.13225493
76	0x3c37049f	0.011170535
77	0xbd841253	-0.064488076
78	0xbc7c6ce8	-0.015406825
79	0x3d4be812	0.049781866
80	0xbdbfd91b	-0.093675815
81	0xbd207896	-0.0391775
82	0xbc2319f8	-0.009954922
83	0xbd825b9c	-0.06365129
84	0xbe006ebd	-0.12542243
85	0x3bb97bfb	0.0056605316
86	0xbeacfab3	-0.33785018
87	0x3bc2be2b	0.00594308
88	0x3c7928ea	0.015207509
89	0x3e2748b7	0.16336332
90	0x3d6552af	0.055987056
91	0x3cf8eaba	0.030385364
92	0x3ea40d69	0.3204148
93	0x3cf8c861	0.030368986
94	0xbe050a5d	-0.12992235
95	0xbdd79fd3	-0.10528531
96	0xbac36da9	-0.0014910001
97	0xbcf87c60	-0.030332744
98	0xbe9360f3	-0.28784904
99	0xbb007132	-0.001959872
100	0x3ce2f213	0.02770332
101	0x3d39599c	0.045251474
102	0xbe576add	-0.21036859
103	0x3da2aa69	0.079426594
104	0x3e15c557	0.1462606
105	0x3deb2f61	0.11483646
106	0xb89647ac	-7.165907e-05
107	0x3db3b4ac	0.08774695
108	0xbdba00ce	-0.09082185
109	0xbd3ee6fa	-0.046606995
110	0x3d6ee4c2	0.05832363
111	0xbda00160	-0.07812762
112	0xbb5b1980	-0.0033431947
113	0x3a730600	0.00092706084
114	0xbbfac30b	-0.0076526455
115	0x3d8c6d4c	0.06856784
116	0x3c2372fd	0.009976146
117	0xbe5ab722	-0.21358922
118	0x3ddbdd30	0.107355475
119	0x3cf08184	0.029358633
120	0x3dd30fc2	0.1030574
121	0x3dd57e52	0.10424484
122	0xbdb638fc	-0.08897588
123	0xbe30052a	-0.1718947
124	0x3d37f123	0.0449077
125	0x3d6a60dc	0.05722128
126	0xba8ab540	-0.0010582581
127	0xbdc3fff3	-0.09570303
128	0x3d1e501a	0.03865061
129	0xbbd729f0	-0.0065662786
130	0xbdab8a0e	-0.08375941
131	0x3ceeeec4	0.029166587
132	0xbe052879	-0.1300372
133	0xbdea98e0	-0.1145494
134	0x3e08a321	0.13343479
135	0x3e096ba0	0.13419962
136	0x3dc70b63	0.09718969
137	0xbd6cf6ce	-0.05785256
138	0xbda71650	-0.08158553
139	0x3d6a3ca2	0.05718673
140	0xbae89d00	-0.0017746985
141	0xbd8e3838	-0.069443166
142	0xbdaccb50	-0.08437216
143	0x3da10aab	0.07863363
144	0xbd4b484d	-0.0496295
145	0xbb9ad333	-0.004724884
146	0x3eaf5323	0.34243116
147	0xbe469fd3	-0.19396906
148	0x3d493632	0.04912395
149	0x3dce7d4e	0.10082494
150	0x3c8d4688	0.017245546
151	0xbda9eec8	-0.08297497
152	0x3d18ff66	0.037352942
153	0xbdd006de	-0.1015756
154	0x3ca1647c	0.019701235
155	0xbdcf1844	-0.1011205
156	0xbce11a05	-0.027478227
157	0xbc277d7c	-0.010222789
158	0x3db127ea	0.08650191
159	0xbdea1793	-0.11430278
160	0xbd90bd21	-0.070673235
161	0x3cd9fdc1	0.026610257
162	0xbd397559	-0.045277927
163	0x3d88685d	0.06660531
164	0x3e006ecb	0.12542264
165	0xbe40d11f	-0.18829773
166	0xbd9a6a38	-0.07539791
167	0x3dbc22ee	0.0918635
168	0xbd45d94d	-0.048302937
169	0xbe1915f3	-0.14949779
170	0xbe82fbb8	-0.2558267
171	0x3d692f9c	0.05693017
172	0xbd96cdd6	-0.07363479
173	0x3dfeb9f5	0.12437812
174	0x3e11615a	0.14197293
175	0x3c18c54e	0.009324385
176	0x3e6339a2	0.22189954
177	0xbd32d4bf	-0.04365992
178	0xbe230d53	-0.15923052
179	0xbe2a0654	-0.16603976
180	0x3cd0eb91	0.025502952
181	0x3e10ba60	0.14133596
182	0xbe1d4bfd	-0.15361018
183	0xbac2a8c1	-0.0014851318
184	0x3c2a6f96	0.010402581
185	0xbe08aaec	-0.13346452
186	0x3e08b1f4	0.13349134
187	0xbc030bc7	-0.007998413
188	0xbe3d49ce	-0.18485186
189	0xbdbbffa2	-0.091796175
190	0x3dacf579	0.08445258
191	0x3e05e27d	0.1307468
192	0xbecacf41	-0.39611247
193	0xbe16a9a2	-0.14713147
194	0x3e287e9a	0.16454545
195	0xbd1beb34	-0.038066104
196	0x3db876f3	0.09007063
197	0xbe5dd181	-0.2166195
198	0xbd8bb8b4	-0.06822339
199	0x3d3fd392	0.04683263
200	0xbd4d938e	-0.050189547
201	0xbc012240	-0.007881701
202	0xbda9f855	-0.08299319
203	0x3c913484	0.017725237
204	0xbc0db740	-0.008649647
205	0xbd5b3e03	-0.053525936
206	0x3e8aaf7a	0.27087003
207	0x3de4fd69	0.11181147
208	0xbd8f7d53	-0.070063256
209	0x3dbb1671	0.0913514
210	0x3c4573a7	0.012051499
211	0xbcb55f25	-0.022140095
212	0x3cbbb737	0.022914512
213	0x3c6e4a5f	0.014544099
214	0x3be21367	0.0068992856
215	0xbcefe181	-0.029282333
216	0x3dcb9c4b	0.0994192
217	0x3cfd4a2d	0.030919159
218	0x3995fb6a	0.00028606813
219	0x3db35df2	0.08758153
220	0xbd0db376	-0.034594975
221	0x3de2bb31	0.1107086
222	0x3cd26b74	0.025686003
223	0xbda7359e	-0.081645235
224	0xbcad6888	-0.021168008
225	0xbdd05c5d	-0.10173867
226	0x3c509948	0.012731858
227	0xba517c00	-0.0007991195
228	0xbdc007be	-0.09376477
229	0xbdc2d711	-0.09513677
230	0xbe807cae	-0.25095123
231	0x3e004986	0.12528047
232	0xbbdaa62e	-0.006672642
233	0xbbf21722	-0.0073880116
234	0x3d644715	0.05573185
235	0x3cc76da7	0.024344278
236	0x3ea569bf	0.3230724
237	0x3e0d11f8	0.13776386
238	0xbe0a7af4	-0.13523465
239	0x3d8087b1	0.06275881
240	0x3dbb95f9	0.091594644
241	0xbd3ea250	-0.046541512
242	0xbdb663d3	-0.08905759
243	0xbddb4a35	-0.10707513
244	0xbd49f7d7	-0.049308624
245	0xbd535eb3	-0.051603984
246	0xbd4e2635	-0.050329406
247	0x3deaad4e	0.114588365
248	0xbd784247	-0.060610082
249	0xbe6e483b	-0.23269741
250	0x3d3e3e48	0.046446115
251	0xbda25328	-0.07926017
252	0xbdc741df	-0.09729361
253	0xbbdcf66e	-0.006743244
254	0xbea344b5	-0.31888357
255	0x3db17b15	0.08666054

sequential_48/dense_192/MatMul f4 [128, 512]
0	0x3db0f7dc	0.086410254
1	0xbe1c3c0a	-0.15257278
2	0x3df85141	0.12124873
3	0xbd8b1aed	-0.06792245
4	0xbe13ac44	-0.14421183
5	0x3de32196	0.110903904
6	0x3c561b4b	0.013068031
7	0xbe2de6b0	-0.16982532
8	0xbd4e6c99	-0.050396536
9	0x3dcda7ec	0.10041794
10	0xbd0076b8	-0.03136322
11	0x3e0b3ab5	0.13596614
12	0xbcdcfb0b	-0.026975175
13	0x3d6598f4	0.05605407
14	0x3da11eb6	0.07867186
15	0x3d13d1d8	0.036088794
16	0x3b104ecb	0.002201962
17	0x3d1ef230	0.038805187
18	0xbd574b76	-0.0525622
19	0xbe3f5b18	-0.18687093
20	0xbe6be7c3	-0.23037629
21	0xbd1a907b	-0.037735444
22	0x3d85fd1c	0.065424174
23	0x3d93d884	0.072190315
24	0xbe1d0f7e	-0.15337941
25	0x3d97f8b0	0.0742048
26	0xbd412e0e	-0.04716306
27	0xbe7accde	-0.24492213
28	0x3e8bf7dc	0.2733754
29	0x3d5b3dee	0.053525858
30	0xbde093d6	-0.109656975
31	0xbdbe0617	-0.09278505
32	0xbefd7b6c	-0.49508226
33	0xbcfc2b48	-0.030782357
34	0xbccf5b30	-0.025312036
35	0x3d55f875	0.0522389
36	0xbde1734f	-0.110083215
37	0xbc414548	-0.011796303
38	0x3e6b9201	0.23004915
39	0xbdaf0cb2	-0.08547343
40	0xbbc554e0	-0.006022081
41	0xbe1ad0e9	-0.15118755
42	0x3e1d0b31	0.153363
43	0x3d915876	0.07096951
44	0x3c8d6ffc	0.017265312
45	0xbe154b51	-0.14579512
46	0x3db5fff9	0.088867135
47	0x3e272dad	0.16326018
48	0xbdc646a9	-0.09681446
49	0x3d8e8329	0.069586106
50	0xbd9b3d0c	-0.07580003
51	0xbe8473be	-0.25869554
52	0xbde79a4b	-0.11308726
53	0xbc8a6848	-0.016895428
54	0xbd92f731	-0.07176054
55	0xbe033b88	-0.12815678
56	0xbcb587fc	-0.022159569
57	0xbe04e8a9	-0.12979378
58	0x3e1ef24b	0.15522115
59	0xbe78a59c	-0.24281925
60	0x3c331354	0.010929901
61	0xbe28cae3	-0.16483645
62	0x3d4d0661	0.05005491
63	0xbe2282de	-0.15870234
64	0xbdacaf47	-0.08431869
65	0xbdb57a04	-0.08861163
66	0x3e249966	0.16074142
67	0xbe1d6398	-0.15370023
68	0xbe751500	-0.23933792
69	0x3d172416	0.03689965
70	0x3e082c61	0.13298179
71	0xbd9704aa	-0.073739365
72	0xbde9d552	-0.11417641
73	0x3d2fe7af	0.04294556
74	0x3ceffe30	0.02929601
75	0xbe486eec	-0.19573563
76	0xbdac81a6	-0.08423166
77	0x3e47d623	0.1951528
78	0x3dfa69e6	0.1222723
79	0xbcb7f254	-0.022454418
80	0x3d1a8910	0.03772837
81	0xbbdb9476	-0.0067010475
82	0xbb9a864b	-0.004715716
83	0x3da8576f	0.08219802
84	0x3dbafad5	0.09129874
85	0xbda81d45	-0.08208708
86	0x3c0116a6	0.007878935
87	0xbf191bf9	-0.5980831
88	0xbc22baf8	-0.009932272
89	0xbd3702f9	-0.04468057
90	0x3d992f0b	0.07479676
91	0xbdcea577	-0.10090154
92	0x3bc53ce0	0.0060192198
93	0x3d72a818	0.059242338
94	0x3d2f886f	0.042854723
95	0x3d9c699b	0.0763733
96	0xbe16e5e0	-0.14736128
97	0x3e1e5b82	0.15464595
98	0xbd33e191	-0.04391629
99	0xbdbe5513	-0.0929357
100	0x3d5b67b0	0.05356568
101	0xbd28483a	-0.041084506
102	0x3cc54bc7	0.024083985
103	0xbe1de70a	-0.15420166
104	0x3e6ca35b	0.2310919
105	0xbe3ede61	-0.18639518
106	0xbd9c4cd6	-0.07631843
107	0x3d40399d	0.046929944
108	0xbdbbf866	-0.091782376
109	0xbc230c99	-0.009951734
110	0x3d862956	0.06550853
111	0xbe20ce18	-0.15703619
112	0xbd05b03a	-0.032638766
113	0xbd16901a	-0.03675852
114	0x3dd76436	0.105171606
115	0x3c69ee45	0.014277999
116	0x3db2e4d6	0.08735053
117	0xbdcc4421	-0.09973932
118	0x3d948324	0.072515756
119	0xbd620a22	-0.055185445
120	0xbda6035c	-0.081061095
121	0xbbede573	-0.0072600185
122	0xbda88c8a	-0.08229931
123	0xbe1ba67a	-0.15200225
124	0x3ca6dde1	0.020369472
125	0xbc726c98	-0.014796399
126	0x3a962f00	0.0011458099
127	0x3dae3740	0.08506632
128	0xbe04a8ac	-0.12954968
129	0x3dc32de8	0.0953024
130	0x3d9db592	0.077006474
131	0xbd84cda4	-0.06484535
132	0x3d54475c	0.051825866
133	0xbd86eefe	-0.06588553
134	0xbe90dd59	-0.28293875
135	0x3d0a82d7	0.033816185
136	0x3ca39d40	0.019972444
137	0x3d2c5a0b	0.04207806
138	0x3e176455	0.14784367
139	0x3c8fea76	0.017567854
140	0x3dac8e9c	0.08425638
141	0xbd12dfe5	-0.035858054
142	0xbdd63265	-0.10458831
143	0x3c20db5a	0.0098179225
144	0x3d740b89	0.059581313
145	0xbd10cdda	-0.035352565
146	0x3d7c3bd9	0.061580513
147	0x38ee0d86	0.00011351243
148	0xbdb73b6d	-0.089468814
149	0xbcd63049	-0.026146071
150	0x3dbcd938	0.09221119
151	0x3e3de104	0.18542868
152	0xbd96ccf2	-0.07363309
153	0xbd2a406c	-0.041565344
154	0x3db860b0	0.09002817
155	0x3c4ae970	0.012384757
156	0xbe166949	-0.146886
157	0x3cde51d4	0.027138628
158	0xbd9b2496	-0.075753376
159	0xbdcf6253	-0.10126176
160	0xbebe7c48	-0.37204194
161	0xbc29ea10	-0.010370746
162	0xbd137040	-0.03599572
163	0xbe3041a8	-0.17212546
164	0xbce8c91d	-0.02841621
165	0x3d963d54	0.07335916
166	0x3dd15eda	0.102231696
167	0xba41f080	-0.0007398203
168	0x3e335594	0.17513114
169	0x3db792ce	0.08963548
170	0xbc914fba	-0.017738212
171	0x3daa6a7e	0.08321093
172	0x3d2805e4	0.041021243
173	0x3db673ad	0.08908782
174	0x3c491c40	0.012274802
175	0xbdab937c	-0.0837774
176	0xbe2ae173	-0.16687565
177	0xbc7e3c2e	-0.015517278
178	0xbd58f856	-0.052971207
179	0xbe4afc71	-0.19822861
180	0x3b8901ad	0.004181108
181	0xbe144bf5	-0.144821
182	0x3ed1a5c9	0.40946797
183	0xbe33b370	-0.17548919
184	0xbe36afd5	-0.17840512
185	0xbe6f2bfa	-0.2335662
186	0xbd3bb31c	-0.04582511
187	0xbc5e48c7	-0.013567156
188	0xbd8fa840	-0.07014513
189	0xbe053b62	-0.13010934
190	0xbb86dfec	-0.004116049
191	0x3ce011cc	0.027352236
192	0x3d83f9bf	0.0644412
193	0x3d03277f	0.03202009
194	0x3eae7779	0.34075525
195	0x3c7082a8	0.014679588
196	0xbe2b4fa9	-0.16729607
197	0x3d76fbab	0.060298603
198	0xbd0e3573	-0.034718942
199	0xbd21d9a3	-0.039514195
200	0x3bbdfa71	0.005797677
201	0xba94aa66	-0.0011342287
202	0x3e96439c	0.29348457
203	0x3e058496	0.13038859
204	0xbdd05f8e	-0.101744756
205	0xbd770fb5	-0.060317714
206	0x3e15f6cd	0.14644928
207	0xbc037f76	-0.0080259945
208	0xbc8b45fd	-0.017001146
209	0xbd176443	-0.03696085
210	0x3dacb87b	0.08433624
211	0x3d2dbc9a	0.042416193
212	0xbd4e58e5	-0.050377745
213	0xbdec967e	-0.115521416
214	0x3db5c003	0.08874514
215	0xbbe33dc0	-0.0069348514
216	0x3d8bced0	0.06826556
217	0xbe8dfbfc	-0.2773131
218	0xbdb830c3	-0.089936756
219	0x3dbaeede	0.091275916
220	0x3d7e1e98	0.062040895
221	0x3b08d7ae	0.0020880508
222	0xbe7a768a	-0.24459282
223	0x3d3453fe	0.044025414
224	0xbda51344	-0.08060315
225	0xbe9111c2	-0.2833386
226	0xbea75fa9	-0.3269017
227	0x3bf214e9	0.0073877466
228	0xbdd33c5d	-0.10314248
229	0xbe8c652c	-0.27420938
230	0x3d7107a4	0.058845177
231	0xbd5fd6e4	-0.054648295
232	0x3d78dd33	0.060757827
233	0xbc337c5a	-0.010954941
234	0xbb7027c2	-0.0036644791
235	0xbe00d03c	-0.12579435
236	0xbd5cb726	-0.0538856
237	0x3cfe0ed0	0.031012923
238	0xbd23c5d1	-0.039983574
239	0x3df7443c	0.120735615
240	0x3d9984cc	0.07496032
241	0x3dafc05d	0.08581612
242	0x3e1371de	0.14398906
243	0x3e992c69	0.29916695
244	0x3dcb252c	0.09919199
245	0x3d421385	0.047381897
246	0xbeca3987	-0.39497015
247	0x3db935fe	0.09043501
248	0xbd2e6169	-0.042573366
249	0xbdb0c616	-0.08631532
250	0xbd1ba144	-0.03799559
251	0x3d034a50	0.03205329
252	0xbe0df932	-0.13864592
253	0xbd9dc2e9	-0.07703192
254	0xbd3289ca	-0.043588437
255	0x3c482dd9	0.012217962

sequential_48/dense_193/MatMul f4 [128, 128]
0	0x3e5b9066	0.21441802
1	0x3d37355a	0.044728614
2	0xbd8809e9	-0.06642515
3	0x3e73f79c	0.23824924
4	0x3e897db0	0.26853704
5	0xbdd6f335	-0.10495607
6	0xbc3d2383	-0.011544111
7	0xbdd7ef5e	-0.105437025
8	0xbe174c06	-0.14775094
9	0x3e5cd3eb	0.21565215
10	0x3ce2a4bc	0.027666442
11	0xbd0adc6b	-0.033901613
12	0x3ef1e43d	0.47244444
13	0x3e04452c	0.12917012
14	0x3d7e54fa	0.06209276
15	0xbe108501	-0.14113237
16	0x3dee1b3f	0.116262905
17	0x3d93467a	0.07191177
18	0x3dbc8fd0	0.092071176
19	0xbdd5281e	-0.10408042
20	0x3e4da74a	0.20083347
21	0x3df1fb23	0.11815479
22	0x3da8e084	0.08245948
23	0x3df9d284	0.12198356
24	0xbdb5e56d	-0.0888165
25	0x3d0150df	0.031571265
26	0xbcc8d4b5	-0.02451549
27	0xbdcc9613	-0.09989562
28	0x3dde2ab7	0.10847991
29	0xbe281154	-0.1641286
30	0xbc99559c	-0.01871758
31	0x3d85d6b8	0.06535095
32	0xbdc1e865	-0.09468154
33	0xbdb5f726	-0.088850304
34	0x3eaf45f1	0.3423305
35	0x3dd813c9	0.10550649
36	0xbdbd40a9	-0.092408486
37	0xbdc26053	-0.09491029
38	0x3c69c1e7	0.014267421
39	0x3e45b2d6	0.19306502
40	0x3e05d94b	0.13071172
41	0x3e12bc46	0.14329633
42	0xbc20c8e7	-0.009813524
43	0xbdee9700	-0.11649895
44	0x3ce0c2ba	0.027436603
45	0xbcf1e876	-0.029529791
46	0x3cf2c8ee	0.029636826
47	0x3dd93303	0.10605433
48	0xbdec9d5b	-0.11553451
49	0x3d5ab6cb	0.05339698
50	0x3e7244c8	0.2365905
51	0x3d28b97b	0.041192513
52	0xbdf7f29b	-0.1210682
53	0x3e077bbc	0.13230795
54	0x3e3c2712	0.18374279
55	0xbd475131	-0.048661415
56	0x3ea29f4d	0.31762162
57	0xbe92ad2b	-0.28647742
58	0xbd8c45fe	-0.068492875
59	0xbd5b341a	-0.053516485
60	0xbd272af6	-0.040812455
61	0xbed8d9f4	-0.42353785
62	0x3de99820	0.11405969
63	0x3ccccb16	0.024999183
64	0x3cd49b39	0.025952922
65	0x3d5c95fb	0.05385397
66	0xbd4b6560	-0.049657226
67	0x3e8a2ead	0.26988736
68	0xbe0f173a	-0.13973704
69	0x3e08c756	0.1335729
70	0x3da519a6	0.08061533
71	0xbd6ca931	-0.05777854
72	0x3e3d72f1	0.18500878
73	0x3c5bed95	0.013423343
74	0xba1df394	-0.00060253707
75	0x3e04fae3	0.1298633
76	0x3da98832	0.0827793
77	0xbddcbfec	-0.10778794
78	0x3e712585	0.23549469
79	0xbdef22f1	-0.116765864
80	0xbd6f0645	-0.05835559
81	0x3ce1da58	0.027569935
82	0x3dbc7ff4	0.092040926
83	0x3eaec203	0.34132394
84	0x3e5fbbaa	0.21848932
85	0x3e0d8f0f	0.13824104
86	0x3e27e50c	0.16395968
87	0xbe62ab32	-0.22135618
88	0x3e4dacc1	0.20085432
89	0x3e8eb3aa	0.27871448
90	0xbe450163	-0.1923881
91	0xbc06916e	-0.008213384
92	0x3d318fb3	0.043349933
93	0x3e1d7943	0.15378289
94	0xbcd3f3f4	-0.025873162
95	0x3d9c78c5	0.076402225
96	0xbcd8b498	-0.026453301
97	0x3e4d2cf1	0.20036675
98	0x3e2807bc	0.164092
99	0xbdcc1283	-0.09964468
100	0xbc39faf8	-0.0113513395
101	0xbdc26449	-0.09491784
102	0xbaef9d1d	-0.0018281076
103	0xbece86a7	-0.40337107
104	0x3eae09f5	0.33991972
105	0xbd854fe1	-0.06509376
106	0xbe168c70	-0.1470201
107	0xbcc8277c	-0.02443289
108	0x3db41922	0.08793856
109	0x3e85817e	0.26075357
110	0x3c2c1293	0.010502475
111	0x3e9ba150	0.3039651
112	0x3d30b589	0.043141875
113	0xbe7921ec	-0.24329346
114	0x3d86140a	0.06546791
115	0xbcbd9b48	-0.023145333
116	0xbcee9a7f	-0.029126404
117	0x3d65bee5	0.056090254
118	0x3d1d80a5	0.038452763
119	0xbc8583c6	-0.016298186
120	0xbce29ef2	-0.027663682
121	0x3ec091e8	0.37611318
122	0x3ddce854	0.107865006
123	0x3ea450d6	0.32092923
124	0xbd9b4c79	-0.075829454
125	0xbdef1cdf	-0.116754286
126	0xbcc48924	-0.023991175
127	0x3d869cfd	0.06572912
128	0xbdbe304c	-0.09286556
129	0x3dabe5fb	0.08393475
130	0xbd7d3042	-0.0618136
131	0x3e064086	0.13110551
132	0x3d788f18	0.06068334
133	0xbc1c6851	-0.009546355
134	0xbc2588b6	-0.010103395
135	0xbd78b5d2	-0.060720272
136	0x3de9c23a	0.11413999
137	0xbdba98e9	-0.091111965
138	0xbd559492	-0.05214364
139	0x3e165c15	0.14683564
140	0x3c33b93e	0.010969458
141	0x3dcad562	0.09903981
142	0xbb004e80	-0.001957804
143	0x3df2cdce	0.118556604
144	0x3b7f4b82	0.0038954918
145	0x3ddf0400	0.10889435
146	0xbd7523b2	-0.059848495
147	0xbd367af2	-0.044550844
148	0xbc223f9c	-0.009902861
149	0xbcb1830b	-0.021668931
150	0x3e147af5	0.1450003
151	0x3cd95c2b	0.026533207
152	0xbda4b128	-0.080416024
153	0x3d7b3bf0	0.061336458
154	0xbbfa26df	-0.0076340283
155	0xbd2ca132	-0.042145915
156	0x3db95dd9	0.09051103
157	0xbe1c0dbe	-0.15239617
158	0xbc727976	-0.014799466
159	0xbe1a944e	-0.15095636
160	0x3d38e749	0.045142446
161	0xbd4715f2	-0.048604913
162	0xbe050e8a	-0.12993827
163	0x3d90f3f0	0.070777774
164	0xbe4e3629	-0.20137848
165	0xbd941399	-0.072303005
166	0x3db0f468	0.08640367
167	0xbd07d482	-0.033161648
168	0xbe0f2f1f	-0.13982819
169	0xbe0da9aa	-0.13834253
170	0x3e643b1f	0.22288178
171	0xbde1ba9e	-0.110219225
172	0x3b5b5040	0.003346458
173	0xbced623a	-0.028977502
174	0xbd17efa7	-0.037093785
175	0x3d99b4e1	0.07505203
176	0x3cb77698	0.022395417
177	0x3dfef41e	0.124489054
178	0x3e289ae0	0.1646533
179	0xbe46584d	-0.19369622
180	0xbcc83ed8	-0.024444029
181	0x3d07ee26	0.0331861
182	0xbe0fddaa	-0.14049402
183	0x3bf09ff5	0.007343287
184	0x3d5af75d	0.05345856
185	0x3da2245a	0.0791709
186	0x3cea9ad0	0.028638273
187	0xbd38d614	-0.045126036
188	0xbc548c8f	-0.012972965
189	0xbdad69ae	-0.084674224
190	0x3e496247	0.19666396
191	0xbd5eb52e	-0.054372005
192	0xbe4ae196	-0.19812617
193	0xbe175aef	-0.14780782
194	0xbce38484	-0.02777315
195	0x3dc44cb3	0.09584942
196	0xbd044f02	-0.03230191
197	0x3d7b941e	0.061420552
198	0x3d992fe8	0.074798405
199	0x3d543f8f	0.051818427
200	0xbe8e7835	-0.27826086
201	0xbdebfb85	-0.11522583
202	0xbdd47198	-0.10373229
203	0xbe20f6c4	-0.15719134
204	0xbc43f760	-0.011960834
205	0xbde4bad3	-0.111684464
206	0x3e57ac91	0.21061923
207	0x3d6c36dc	0.057669505
208	0x3df4c171	0.119509585
209	0xbba0ed62	-0.0049111107
210	0xbd995c28	-0.074882805
211	0xbe0c31dc	-0.13690895
212	0x3d7cbb2a	0.06170193
213	0x3d5ae543	0.053441297
214	0xbd33e16d	-0.043916155
215	0xbcf4b56f	-0.02987167
216	0xbe209d6f	-0.15685056
217	0x3de201ef	0.11035525
218	0x3ce7e509	0.028307455
219	0x3c1354f0	0.008992419
220	0xbc129060	-0.0089455545
221	0xbe0cf346	-0.13764676
222	0x3da91902	0.08256723
223	0x3e026d97	0.12737118
224	0xbd5b787b	-0.053581696
225	0xbdfa655c	-0.12226364
226	0x3d6d414a	0.057923593
227	0xbd46af19	-0.04850683
228	0xbdecbd60	-0.11559558
229	0xbde390c9	-0.111116
230	0x3e11e7dc	0.14248604
231	0xbe35986e	-0.17733929
232	0xbdea7388	-0.11447817
233	0x3e10b1ed	0.14130373
234	0xbdde9912	-0.108690396
235	0x3c97d0a8	0.018532112
236	0x3dea2c0f	0.11434185
237	0x3e11d03d	0.14239593
238	0xbc9d9e59	-0.019240545
239	0x3bf9ecaf	0.007627092
240	0xbdb8809a	-0.09008904
241	0x3c51d000	0.012805939
242	0xbdfe5f7a	-0.124205545
243	0xbe2fe7d1	-0.17178275
244	0x3d8978e5	0.06712512
245	0xbd46a10a	-0.048493423
246	0xbe15f5c3	-0.14644532
247	0x3e1012ee	0.14069721
248	0x3df66c95	0.12032429
249	0x3de06683	0.109570526
250	0x3e2522a7	0.161265
251	0xbd81faed	-0.063466884
252	0xbb6660e5	-0.0035152968
253	0x3dad6845	0.084671535
254	0x3dd48317	0.10376566
255	0x3d070052	0.03295929

sequential_48/dense_194/MatMul f4 [1, 128]
0	0xbedce945	-0.4314672
1	0x3e7279f0	0.23679328
2	0x3f371fe7	0.71533054
3	0x3ef45ffb	0.47729477
4	0x3ec89f48	0.39184022
5	0xbe1eb031	-0.15496899
6	0xbd128cd3	-0.03577883
7	0xbe9c8f59	-0.30578116
8	0xbec88571	-0.39164308
9	0xbec9b31d	-0.39394465
10	0xbe1c5232	-0.1526573
11	0xbec4a86a	-0.3840974
12	0xbe5be4f7	-0.21474062
13	0x3ecb0f0c	0.39659917
14	0xbe138175	-0.14404853
15	0xbf02e8db	-0.5113656
16	0x3f33bb67	0.7020783
17	0x3c2e86d0	0.010652259
18	0xbe49b96a	-0.19699636
19	0x3ed1b498	0.40958095
20	0xbeb9fdbe	-0.36326402
21	0x3f09a06d	0.53760415
22	0x3f0cb949	0.5497022
23	0x3ef15498	0.47134852
24	0x3f2161dc	0.63039947
25	0x3ee61042	0.4493428
26	0x3f23f19b	0.64040536
27	0x3f1124dd	0.56696874
28	0xbe5a03f5	-0.21290572
29	0xbea73969	-0.32660988
30	0x3f076c62	0.52899754
31	0x3f291335	0.6604493
32	0x3f330cdf	0.69941515
33	0x3f2d9cd9	0.67817456
34	0xbe9912da	-0.29897195
35	0xbea1e5d5	-0.3162066
36	0x3f012525	0.50447303
37	0xbed25916	-0.41083592
38	0xbeddd7c6	-0.43328685
39	0x3e8938f3	0.2680126
40	0x3f524839	0.82141453
41	0x3f66ae9a	0.9011017
42	0x3ec17127	0.3778164
43	0x3ad8b472	0.0016533269
44	0xbef67cdd	-0.48142138
45	0x3f2dc47d	0.6787794
46	0xbdc831f8	-0.09775156
47	0x3f1ce103	0.6128084
48	0x3f1d6b1b	0.61491555
49	0xbec19160	-0.37806225
50	0x3f271019	0.6525894
51	0xbec6e3a0	-0.3884554
52	0x3ed138b2	0.40863568
53	0x3f0976ac	0.53696704
54	0xbeda007e	-0.425785
55	0x3edb7435	0.42862096
56	0xbe701494	-0.2344535
57	0x3f17de66	0.5932373
58	0x3f02fc99	0.51166683
59	0xbea0fa7c	-0.31441104
60	0x3ec4758d	0.38370934
61	0x3e0f3944	0.13986689
62	0xbe7fd760	-0.24984503
63	0xbe912515	-0.28348604
64	0x3f4275db	0.75961083
65	0xbec38340	-0.38186073
66	0x3e011335	0.12604983
67	0x3f154b8a	0.5831839
68	0x3f55a4d1	0.83454615
69	0x3f410293	0.7539455
70	0x3f61f805	0.8826907
71	0x3f192f8e	0.5983819
72	0xbe8373bb	-0.25674233
73	0xbdc130cf	-0.094331376
74	0xbea938f5	-0.33051267
75	0xbec89947	-0.3917944
76	0x3f00c8c3	0.5030634
77	0x3f18b7e6	0.59655607
78	0xbecdf034	-0.40222323
79	0x3f113f26	0.5673698
80	0xbe96e59c	-0.29472053
81	0xbe9b30a7	-0.30310556
82	0x3f4d39b3	0.8016617
83	0xbe8f25fa	-0.2795866
84	0xbe6fff22	-0.23437169
85	0x3ea5e6e5	0.3240272
86	0x3e445a00	0.19174957
87	0x3f40f38d	0.7537163
88	0xbe524518	-0.2053417
89	0xbe882df4	-0.2659756
90	0xbebacb53	-0.3648325
91	0xbeab889c	-0.33502662
92	0xbebe0283	-0.3711129
93	0x3b624634	0.0034526708
94	0x3ef1816b	0.4716905
95	0x3eef3fcd	0.46728364
96	0x3f1d616e	0.6147679
97	0xbe899548	-0.26871705
98	0x3e143b19	0.14475669
99	0xbeb28924	-0.34870255
100	0x3e1ffa40	0.15622807
101	0x3f3b95c4	0.732754
102	0xbea68239	-0.32521227
103	0x3f2cdf9f	0.6752872
104	0xbef2e221	-0.47438148
105	0xbec59f9c	-0.38598335
106	0xbed03d7d	-0.40671912
107	0xbee3069e	-0.44340986
108	0xbec28359	-0.37990835
109	0x3f2c3e51	0.6728259
110	0xbea992a6	-0.33119696
111	0x3f0192b4	0.50614476
112	0xbed336a1	-0.41252616
113	0x3f27d738	0.6556277
114	0xbf73c594	-0.95223355
115	0x3f1c0b51	0.6095477
116	0xbec7b09d	-0.39001933
117	0x3f25352c	0.6453426
118	0xbec7d027	-0.39025995
119	0x3f059421	0.5217915
120	0x3f16de19	0.58932644
121	0xbead4a1f	-0.33845612
122	0xbe5ea32f	-0.21741937
123	0xbec584c8	-0.38577867
124	0xbea9389f	-0.3305101
125	0xbebfc9c3	-0.3745862
126	0x3ec9f9bd	0.39448348
127	0xbf156e8c	-0.58371806
